DAY04/model.pth (torch, 319936 bytes, 4 tensors)

0.weight f4 [100, 784]
00000000: 0fb1 55bc 0f5d db3c df81 58bc b544 02bc
00000010: 07a1 28bc 9f26 c63c 0b22 233c e1f4 f53c
00000020: cdf7 9ebc 7957 7b3b 463d 853c 4774 0ebd
00000030: 4cde 8b3c d267 933c e1fd da3c b9b8 febb
00000040: 1492 13bd c5f4 14bc d9c0 d03b a371 51bc
00000050: 1279 343c 2925 8bbc 566e a7bc eef6 87bc
00000060: 6196 34bb 4d95 573b 32f2 cc3c 648d 3e3a
00000070: ecde eebc f928 5f3b 1a59 ef3c ec43 f6bc
00000080: 2fa9 5ebb 8b95 e8b8 9b59 933b e2d7 1c3a
00000090: f17f a4bc c055 47bd 7954 15bd e7cb da3c
000000a0: a640 0ebd 19b0 c3bc 3063 9e3b 677f 0bbc
000000b0: 47bd ecbc 1cfc 1dbc 4494 3f3b 6808 b73c
000000c0: 4473 ea3c 4695 d73b cc0a 813a 6543 eb3c
000000d0: 9d0e 37bc 2e69 cb3c d9a2 c2bc 6de7 f5ba
000000e0: 7bd4 b3bc 1798 0ebd 0e58 013d 44f3 7fbc
000000f0: 1e2b 3ebb 7487 c8bc 0d52 f53c de1a aebb
00000100: 9c2c 643c a20a 6ebc b0f5 73bc dd1c 07bc
00000110: d112 a7bc d61d 0c3d c6e2 a03c 62b4 f2bc
00000120: d49e 333c 2bf1 85bc 6e2a a43c ab97 d43c
00000130: 39f4 95bc 128b 023d 18dd 6ebc bada 4e3c
00000140: b38a 35bb a093 753c a177 fe3c 20d2 9fbc
00000150: 95a6 673c d675 003d 7009 0c3d 3df9 65bc
00000160: cf7b 95b8 49f5 11bd b6b8 133b f806 9fbb
00000170: d839 913c 5c39 0b3d 5318 023d 87bc ec3c
00000180: a2c8 84bc bf5e e9bc 9fb4 2dbc 2e05 693c
00000190: 9618 053d 653c a23c c300 a73c 016b 0a3c
000001a0: 45f6 e0bb 0551 28bc 1ee2 b4bc 0cb1 9c3c
000001b0: 4ca9 c0bc ba3b bfbc 5a42 06bd 2863 29bb
000001c0: e8ac 80bc 0c89 dbbc 12d6 fdbc 9644 ab3b
000001d0: f0ec 2d3c 9828 f53c 578b 1cbd 6546 80bc
000001e0: 5e32 e3bc 8666 8b3b 6c07 de3c ac75 8fbc
000001f0: 259d d3bc 3680 cc3c eb11 bd3c 7de3 06bc
00000200: ccec 2eb9 6bdb 1f3c dade 48bc da8c e0bc
00000210: 588d 8cbc ee54 e7ba d4af 9f3c d22f a63c
00000220: 9f98 22ba 35f2 b53c 0db3 79bc b930 073c
00000230: 8654 603c f116 dabc bf93 4bbc 6f9d 943a
00000240: e69a 8abc f6c0 c0bc 71c0 d63c 7e22 613b
00000250: a7d8 31bc f616 bfbc 8445 f13c 1c60 053c
00000260: 9e6a d7bc c70f 0b3d e273 abbb 20d9 0bbd
00000270: 1c52 803c 3fb2 6cbc 814d 1cbc 59bb f2bc
00000280: f8e8 a5bc 28a6 fab9 0c1c e1bc 4573 dd3c
00000290: b978 ce3a 8560 23bc 9974 05bd 3769 a13c
000002a0: 8547 9c3c 141f 04bc 1bc9 d8bc 6bff a1bc
000002b0: 2369 323c 53e6 0fbd d187 11bd dec1 69bc
000002c0: 821e 123d 1f7b 89bc 7350 b33a 793e 913c
000002d0: c0fd bebc a171 c5bc 567d 0f3d 3727 fcbc
000002e0: 6eed 64bb 1e24 6bbc d969 ae38 0e35 ad3b
000002f0: 0a7a 8cbc b3ae 8fbc c3d3 f1bc 3c16 333c
00000300: ffc1 eebc 811a 9f3b 5318 febc d8c7 813a
00000310: e08b f53b 7a94 063d 87a1 c73c c58e 73bc
00000320: 4ae9 d63c 5ac8 1fbd cd0c 8ebc 7d9f f63b
00000330: 296d 9abc 92ca dbbc d047 deba 92c9 c8bc
00000340: 88a0 dcbc 7e6f c8bc 8931 ec3c df62 213c
00000350: eb13 c33c 0226 9dbc bed2 0b3d c90f 023d
00000360: efc2 3e3d 7e7c 623c 3937 b0bc 0ea3 aebc
00000370: 9a20 acbc d70b c4bc c1c4 16bd 99d9 00bd
00000380: 9f8b 463b 5445 17bd 6428 893b e794 81bb
00000390: 49af 183c 84bd 88bc 49d7 773c 03c5 983c
000003a0: 52cd 17bd 9670 24bd d51a d7bc 676d 103c
000003b0: 34d2 803c 7d8a d3bc 45aa ad3b 2693 05bc
000003c0: 0350 d03a 3b28 32bb d549 98bc 3caa d9bc
000003d0: 4abb 243c 6695 acbc 60d5 eebc 55bd 00bd
000003e0: d4d6 6cbb 5964 093c ab34 b5bc 7fe6 2dbb
000003f0: becf 923c 3697 f1bc 1a5a ea39 49e7 cf3c
-0.013042702 0.026777772 -0.013214557 -0.007950951 -0.010292298 0.024188338 0.009956847 0.030023994
-0.01940527 0.0038351698 0.016264569 -0.03477886 0.017073773 0.017993841 0.026732387 -0.0077734855
-0.036027983 -0.009091561 0.0063706455 -0.012783441 0.011015194 -0.016985493 -0.020438354 -0.016597237
-0.0027555453 0.0032895387 0.025017831 0.00072689936 -0.029159032 0.0034051521 0.029217292 -0.030061685
-0.0033975353 -0.000110904766 0.004496766 0.0005983097 -0.020080538 -0.048665762 -0.036457513 0.026708556
-0.034729622 -0.02388768 0.0048336014 -0.008514262 -0.028898848 -0.009642627 0.002923266 0.022342876
0.028619416 0.006579074 0.0009845137 0.02871866 -0.011172918 0.024830427 -0.023759292 -0.0018760987
-0.021951905 -0.034813013 0.031578116 -0.015621964 -0.00290174 -0.024478652 0.029946351 -0.0053132614
0.013926651 -0.014528902 -0.014890119 -0.008246628 -0.020394715 0.03420814 0.019639384 -0.029627029
0.010963161 -0.01635035 0.020039763 0.025951227 -0.018304931 0.03187091 -0.01457908 0.012625391
-0.002770108 0.01498881 0.031062903 -0.019509375 0.014138837 0.031362377 0.034188688 -0.014036474
-7.127935e-05 -0.035634313 0.0022540516 -0.0048531257 0.017727777 0.03399025 0.03176148 0.02889849
-0.01620895 -0.028487561 -0.010602145 0.014222426 0.03249415 0.019804189 0.020386105 0.008448363
-0.006865295 -0.010273223 -0.022080477 0.019127391 -0.023518227 -0.02334391 -0.03277812 -0.0025846455
-0.015707448 -0.026798747 -0.030985866 0.005226682 0.010615572 0.029926583 -0.038218822 -0.015658567
-0.027733978 0.004254165 0.027103148 -0.017512165 -0.025831768 0.02496348 0.023079833 -0.008232948
-0.00016682147 0.009756903 -0.012260163 -0.027410913 -0.017157242 -0.0017649212 0.019493021 0.020286474
-0.0006202552 0.02221022 -0.015240443 0.0082513625 0.013692027 -0.026622267 -0.012425362 0.0011338423
-0.016919564 -0.023529511 0.02621481 0.0034352834 -0.010854877 -0.023326378 0.029452093 0.00814059
-0.026295956 0.033950593 -0.00523232 -0.034142613 0.015664153 -0.014446794 -0.009539963 -0.02963035
-0.02025269 -0.00047807512 -0.027479194 0.027032504 0.0015752531 -0.0099717425 -0.0325819 0.01970349
0.019077072 -0.00806405 -0.026463082 -0.019775113 0.010889324 -0.035131764 -0.035529915 -0.014267413
0.035673626 -0.016782342 0.0013680592 0.017729985 -0.023314357 -0.024102034 0.03503164 -0.030780418
-0.0034931558 -0.014351873 8.316682e-05 0.0052858656 -0.017148037 -0.017539358 -0.029519921 0.010930594
-0.029145239 0.0048554544 -0.031017458 0.0009901477 0.007493481 0.032856442 0.024369014 -0.014865582
0.026234288 -0.03900943 -0.017340088 0.0075263367 -0.01885088 -0.026829991 -0.0016958658 -0.024510179
-0.026932016 -0.024467226 0.028832214 0.009850233 0.023813209 -0.019183163 0.034136526 0.031753335
0.046572622 0.013823627 -0.021510707 -0.021317985 -0.02101164 -0.023931427 -0.036808733 -0.031457517
0.0030295623 -0.03693135 0.004185723 -0.003954518 0.009319135 -0.01669193 0.015127012 0.01864863
-0.037061043 -0.040146433 -0.026257912 0.008815146 0.015725233 -0.025822872 0.0052998387 -0.008152759
0.0015892986 -0.0027184624 -0.018589893 -0.026570432 0.010054419 -0.021067332 -0.02915448 -0.03143056
-0.003613879 0.008385741 -0.02211984 -0.0026535091 0.017921325 -0.029491048 0.0004469909 0.02537884

0.bias f4 [100]
00000000: ed28 4dbc 285f e1bc 85d6 6439 88eb 2e3c
00000010: ae3e 0d3d 86be 013d 9dca be3c 7804 c83c
00000020: 5dcc 01bd c109 e63c 540d acbc a67b c3bc
00000030: 7ffd 043d cf1b 05bd 1432 79bc 750c 17bc
00000040: 95c5 f5bb 8811 4b3c 434f 863c 4198 0bbd
00000050: 12a1 fb3c 55f8 f7bb 262e 69bc da74 343b
00000060: bafc 0cbd d01b a03c d977 fbbc 2384 b93c
00000070: 2882 ed3c ce2e cfbc ce3c 8abb 40bb 983b
00000080: 0061 91bc d0af 023d 9c44 b73c 75bb d9bc
00000090: 91fd 06bd 4f44 04bd c9ee 163c 4c5c 873c
000000a0: f70d f9bc 6ba5 9f3b 7ee6 cf3b e9c9 febc
000000b0: 0063 233c fb14 cabc 7db3 89bc ada2 faba
000000c0: e755 023d 0e9e 8dbc 28a6 7abc 8994 5a3c
000000d0: b275 a63c 2f1d 253b d69f c53c e726 3cbb
000000e0: b7f8 7dbc 4de1 03bd 709f bc3a 7815 73bc
000000f0: 52f8 a53c e83f ccbb f6a8 093c d71b ed3c
00000100: a497 02bd 5179 4d3c c13d 193c 9642 183b
00000110: c88d a93c 0095 0e3d 05b5 edbc a926 d8ba
00000120: 970a e13b ba24 6ebb ceef e13c c1a6 603c
00000130: a702 f43a d8cf 04bd 01f8 b03c 6b34 aa3c
00000140: fb7e 7abc ceef 5e3c 37e6 edbc ff77 4cbc
00000150: 6eb1 d4bb 5f9a a0bc 4c6c e83c ac7b dabb
00000160: f12c 12bd fe81 1cbc 4cc6 5d3c 82de 423c
00000170: eef4 cabc b4f7 cc3c 4603 f7bc 2f00 5a3c
00000180: c1fd 28bb c695 7c3c 89ce 64ba 6969 ebbc
-0.0125219645 -0.027511194 0.00021823689 0.010676272 0.034483604 0.031675838 0.023289973 0.024416193
-0.031689037 0.028080823 -0.02100245 -0.023862671 0.032468315 -0.032497223 -0.015209693 -0.009219279
-0.0075003603 0.0123943165 0.016395217 -0.034080748 0.030716453 -0.0075674453 -0.014232194 0.002753547
-0.034420706 0.019544512 -0.030696796 0.022646016 0.028992727 -0.025290873 -0.0042186743 0.004660994
-0.017746449 0.03190595 0.022371583 -0.026578644 -0.032956664 -0.032291707 0.009212204 0.016523503
-0.030402167 0.0048720143 0.0063446155 -0.031102138 0.009972334 -0.024668207 -0.01680922 -0.0019121967
0.031820204 -0.01728728 -0.015298404 0.013341078 0.020319793 0.0025194397 0.024124067 -0.002870971
-0.015501193 -0.032197285 0.0014390778 -0.0148366615 0.02026001 -0.006233204 0.0084021 0.02894394
-0.031882897 0.012541131 0.009353102 0.0023233048 0.02069749 0.034810066 -0.02901698 -0.0016491014
0.0068677175 -0.0036337809 0.027580168 0.013711632 0.0018616513 -0.032424778 0.021602632 0.020776948
-0.015289064 0.013606979 -0.029040439 -0.012479781 -0.006490878 -0.01960486 0.028371952 -0.006667575
-0.03568739 -0.009552477 0.013536047 0.01189387 -0.024774995 0.025020458 -0.030152928 0.013305708
-0.0025786015 0.015416568 -0.0008728286 -0.028736787

2.weight f4 [10, 100]
00000000: 257f 533c 06f5 d03d bf3c 363e 1f0d 203e
00000010: 9503 efbd 2729 54be fe9e 563e 8166 533e
00000020: fd46 403d c1b8 1cbe e8e1 9c3b 5d55 6b3d
00000030: 06d9 30be c07b 1bbe df91 8abd 8cf8 75be
00000040: fdc1 d13d 6da3 1cbd a4d7 9d3d 12e7 79be
00000050: 9e1f f0bd f74a c33d 808d 23bc a6cc 953d
00000060: ff13 033e ec37 2abe ccf4 d1bd b764 2bbd
00000070: c166 f43d 4856 853d 6722 5abd 7af9 6a3e
00000080: e516 543e b6e8 f03d a332 34be cc7e 423e
00000090: 38f6 983d 148a 58bc 19b1 54be 58c7 4e3e
000000a0: c1d4 943d c849 8ebe 60f5 1dbd 62dd 703e
000000b0: d5ae 7d3d c060 78bd 06cc 7dbe 6a79 893d
000000c0: 64b3 8d3d 78d2 65bd dcd0 7ebd a54d 3d3c
000000d0: 0e40 1cbe cf83 a03d 62ee 553e a394 7a3e
000000e0: 6175 73be 4959 263e 9078 0e3d 9d63 c83c
000000f0: b604 08be 5eca e9bd 6dfa b13d b005 fcbd
00000100: b64d cfbd 65ab 20be 26ab b93d 0d2b 0f3d
00000110: bb62 0dbe 0b3a 0c3e 55e4 083e 0ba1 bbbd
00000120: b9da 003e 4c1f dabd 6353 3bbe 6fbd e6bd
00000130: c0ed 93bd fb14 2dbe 9516 a9bb 9ff0 59be
00000140: 343c dfbd ec00 143e aecf 773e 6ba4 02be
00000150: de7e 2a3d ce27 ce3c eb80 f3bc 7f1d f03c
00000160: 72c1 2cbc d343 d7bc bf88 92bd 1e5f 38bd
00000170: 9296 1c3e 1678 03be 0dd3 d6bc 63f6 1a3e
00000180: 6503 aabd 0e7f 8d3e ce07 4b3e 3634 2b3e
00000190: 8446 63bd 9d8b 51bd 17b2 18be 05ab 1dbe
000001a0: e231 23be 069a 23be 4be0 5bbd 05c3 44be
000001b0: db9d b03c 52dc 5d3e 70cd 81be 8a3d b9bc
000001c0: b97b db3d 8881 a53c 5608 e93d 9380 89be
000001d0: 84e2 883d 1a10 aebd d1bc 26be 24dd 8d3d
000001e0: f10f 40be 35bd 6ebc cfc9 a33d 4385 ca3c
000001f0: d8c1 31bd 1e10 94bd 152a 02bc faf9 febc
00000200: f46e 05be 7383 173d f2bb debd 171e 7ebe
00000210: 4713 8ebd fe2b b53d 3628 39be 60ec eb3d
00000220: c1f0 f63b 62b1 7f3d b1b9 1e3e 03d0 c5bb
00000230: a721 2abe b4ef 503e 6094 fe3d 963a 123e
00000240: 5107 22be c6e2 2cbd c232 32be f059 ddbd
00000250: 93ab 21be abba afbd d6b3 aabd 6636 563d
00000260: b11e bd3d cdce cc3d d353 8c3d 86e1 c3bd
00000270: a52b 223e a0c5 44be d8ca c7bd cbe6 593d
00000280: d62f 10bd 5edc 6a3e 799d 783c ce11 1ebe
00000290: a76e 923d 6adf 3f3c 76e3 f6bd 1fce ef3c
000002a0: 82dc 7cbe e5d4 eebd 91ae 0bbe 469a 23bd
000002b0: 60fb d33d 1ef1 aa3d b7b6 593d cab1 1cbe
000002c0: 9e91 833e 7cca dfbd 3676 e9bd 0265 3e3e
000002d0: 5723 c7bd 4577 ed3d cded e63d 67fb 8fbd
000002e0: 16bc 12bd 7dfd 93ba 62a7 4e3d 668e 8c3c
000002f0: f7f2 a83d a0a5 8b3e 1228 1dbd c5c5 0ebe
00000300: 7ba6 c63d fa82 8bbd 973a e4bd 5204 473d
00000310: 2f04 ecbd a8bc 5f3e acab a9bc 9873 3ebe
00000320: fc08 f3bd c0cb a33d 0c70 3cbe b64b 4a3d
00000330: 9e74 083e a1cd a13d c958 34be e40f fabd
00000340: 5d4a ae3e 6733 1ebd 61f8 14be ee1e c23c
00000350: f607 7cbe f9dc 0e3e 2a87 8ebb ff94 203d
00000360: f4b4 84be e2ef b7bd 8238 81bd 6d90 10be
00000370: 76c3 b2bd 785b acbd 2cc9 c2bd 84af 573d
00000380: b948 e6bd 27bf 24be 42ee 20bc a0de 97bc
00000390: 0d58 41be 16cc 08bd 6840 12be 6cfd 2dbe
000003a0: 7d01 6a3e 2d60 4d3c fc61 4e3e 4a24 84be
000003b0: 7c27 a83d 2a8f 5fbc a33a 64bd cde5 ffbd
000003c0: ab42 c33d ee7d debd 0e2c 493d e41b d43d
000003d0: ae2f 543e 0449 7e3e 201b 133e 10aa d73d
000003e0: a36d a13e bc76 b13e d28a cfbd a9b9 34be
000003f0: 93ff 25be fe5e 6a3d 18d0 5ebe b27d 31be
0.012908732 0.102029845 0.1779661 0.15630005 -0.11670605 -0.20718823 0.20959088 0.20644571
0.0469427 -0.15304853 0.0047876723 0.057454456 -0.17270288 -0.15183926 -0.06766104 -0.24020594
0.102420785 -0.038241792 0.07707146 -0.24404553 -0.117247805 0.09535783 -0.009982467 0.07314424
0.12800597 -0.16622895 -0.102517694 -0.041844096 0.11933661 0.065105975 -0.053255465 0.2294673
0.20711859 0.11763136 -0.17597441 0.18993682 0.074688375 -0.013216514 -0.20770682 0.20193231
0.07267142 -0.27790666 -0.038564086 0.23521951 0.06193431 -0.060639143 -0.2478486 0.06712611
0.06918982 -0.05610892 -0.062210903 0.011554156 -0.1525881 0.078376405 0.20891717 0.24470763
-0.23775245 0.16244997 0.034782946 0.024461562 -0.13283047 -0.114155516 0.08690343 -0.12305772
-0.10122244 -0.15690382 0.09065847 0.034953166 -0.13807194 0.13694017 0.13368352 -0.09161576
0.12583436 -0.10650501 -0.18293528 -0.112666 -0.072230816 -0.16902535 -0.0051601627 -0.21283196
-0.10900155 0.14453477 0.24200317 -0.12758033 0.041624896 0.025165465 -0.029724559 0.02931094
-0.010544168 -0.026277458 -0.071549885 -0.045012586 0.15291813 -0.12838778 -0.026223684 0.15133052
-0.08301429 0.27635998 0.19827196 0.16719136 -0.05548717 -0.051158536 -0.14911686 -0.1539727
-0.15936998 -0.15976724 -0.0536807 -0.19215019 0.021559646 0.21666077 -0.2535205 -0.022612352
0.107169576 0.020203367 0.11378543 -0.26855907 0.066838294 -0.08499165 -0.16282965 0.06926945
-0.18756081 -0.014571478 0.07997476 0.024721747 -0.043397754 -0.072296366 -0.007944603 -0.031125057
-0.13030607 0.036990594 -0.108756915 -0.24816166 -0.069372706 0.088462815 -0.18081746 0.11519694
0.0075360243 0.062425025 0.15500523 -0.00603676 -0.166144 0.2040394 0.12430644 0.14280161
-0.15823103 -0.042208456 -0.17402175 -0.1080817 -0.15788107 -0.08580526 -0.08335082 0.052297972
0.092343695 0.100003816 0.06851926 -0.095644996 0.15836962 -0.19216013 -0.09755486 0.053198617
-0.03520187 0.22935626 0.015174263 -0.1543648 0.071500115 0.011710981 -0.120551035 0.02927309
-0.24693492 -0.116617 -0.1364081 -0.03994205 0.1035068 0.08346771 0.053152766 -0.15302196
0.25697035 -0.10927293 -0.113995 0.18593219 -0.097235374 0.115950145 0.11275826 -0.07030373
-0.035823904 -0.0011290755 0.050452597 0.017157745 0.08249467 0.272748 -0.038368292 -0.1394263
0.096997224 -0.06812091 -0.111439876 0.048588105 -0.115242355 0.2184931 -0.020711742 -0.18598783
-0.11866948 0.079978466 -0.18402117 0.04938861 0.13325736 0.07900549 -0.17611994 -0.12210062
0.3404111 -0.03862324 -0.14547874 0.023696389 -0.24612412 0.13951482 -0.004349609 0.039204594
-0.25919306 -0.08981301 -0.06309606 -0.14117594 -0.087286875 -0.08415884 -0.09511027 0.05265762
-0.112443395 -0.16088544 -0.00982243 -0.018538773 -0.18881245 -0.033397757 -0.14282382 -0.16991204
0.2285213 0.012535137 0.20154566 -0.25808936 0.08210656 -0.013644973 -0.055719983 -0.12495003
0.095342 -0.10863863 0.04911428 0.10356882 0.20721313 0.24832541 0.14365816 0.10530484
0.3152896 0.346609 -0.101339 -0.17648949 -0.16210775 0.057219498 -0.21759069 -0.17333105

2.bias f4 [10]
00000000: d84d e73d 0e93 acbd 5517 523d da27 0a3d
00000010: 2203 15bd c6d2 403e 31a5 bc3c 35a3 82bd
00000020: f43a 95bc df50 f0bd
0.112941444 -0.08426486 0.051291782 0.03372941 -0.03637994 0.18830404 0.023027988 -0.063787855
-0.018216588 -0.11734175
